…
yName":"SJ alone","photoUrl":"","userId":"08743502353242220456"}},"outputId":"d5fe1e16-7ad5-4a89-99ee-f68793635e8b"},"source":["adam = keras.optimizers.Adam(lr=1e-3)\n","model.compile(optimizer=adam, loss='mean_squared_error', metrics=['accuracy'])\n","model.summary()"],"execution_count":6,"outputs":[{"output_type":"stream","text":["Model: \"sequential\"\n","_________________________________________________________________\n","Layer (type)                 Output Shape              Param #   \n","=================================================================\n","dense (Dense)                (None, 2)                 22        \n","_________________________________________________________________\n","leaky_re_lu (LeakyReLU)      (None, 2)                 0         \n","_________________________________________________________________\n","batch_normalization (BatchNo (None, 2)                 8         \n","_________________________________________________________________\n","dense_1 (Dense)              (None, 20)                60        \n","_________________________________________________________________\n","leaky_re_lu_1 (LeakyReLU)    (None, 20)                0         \n","_________________________________________________________________\n","batch_normalization_1 (Batch (None, 20)                80        \n","_________________________________________________________________\n","dense_2 (Dense)              (None, 20)                420       \n","_________________________________________________________________\n","leaky_re_lu_2 (LeakyReLU)    (None, 20)                0         \n","_________________________________________________________________\n","batch_normalization_2 (Batch (None, 20)                80        \n","_________________________________________________________________\n","dense_3 (Dense)              (None, 20)                420       \n","_________________________________________________________________\n","leaky_re_lu_3 (LeakyReLU)    (None, 20)                0         \n","_________________________________________________________________\n","batch_normalization_3 (Batch (None, 20)                80        \n","_________________________________________________________________\n","dense_4 (Dense)              (None, 10)                210       \n","=================================================================\n","Total params: 1,380\n","Trainable params: 1,256\n","Non-trainable params: 124\n","_________________________________________________________________\n"],"name":"stdout"},{"output_type":"stream","text":["/usr/local/lib/python3.7/dist-packages/tensorflow/python/keras/optimizer_v2/optimizer_v2.py:375: UserWarning: The `l
…
lone","photoUrl":"","userId":"08743502353242220456"}},"outputId":"2e8b3c8e-0004-4c23-f8d5-2af4142c8aaf"},"source":["adam = keras.optimizers.Adam(lr=1e-3)\n","model.compile(optimizer=adam, loss='mean_squared_error',metrics=['mean_squared_error'])\n","model.summary()"],"execution_count":13,"outputs":[{"output_type":"stream","text":["Model: \"sequential_1\"\n","_________________________________________________________________\n","Layer (type)                 Output Shape              Param #   \n","=================================================================\n","conv2d (Conv2D)              (None, 2, 5, 30)          150       \n","_________________________________________________________________\n","leaky_re_lu_4 (LeakyReLU)    (None, 2, 5, 30)          0         \n","_________________________________________________________________\n","batch_normalization_4 (Batch (None, 2, 5, 30)          120       \n","_________________________________________________________________\n","conv2d_1 (Conv2D)            (None, 2, 5, 30)          3630      \n","_________________________________________________________________\n","leaky_re_lu_5 (LeakyReLU)    (None, 2, 5, 30)          0         \n","_________________________________________________________________\n","batch_normalization_5 (Batch (None, 2, 5, 30)          120       \n","_________________________________________________________________\n","conv2d_2 (Conv2D)            (None, 2, 5, 30)          3630      \n","_________________________________________________________________\n","leaky_re_lu_6 (LeakyReLU)    (None, 2, 5, 30)          0         \n","_________________________________________________________________\n","batch_normalization_6 (Batch (None, 2, 5, 30)          120       \n","_________________________________________________________________\n","conv2d_3 (Conv2D)            (None, 2, 5, 30)          3630      \n","_________________________________________________________________\n","leaky_re_lu_7 (LeakyReLU)    (None, 2, 5, 30)          0         \n","_________________________________________________________________\n","batch_normalization_7 (Batch (None, 2, 5, 30)          120       \n","_________________________________________________________________\n","conv2d_4 (Conv2D)            (None, 2, 5, 30)          930       \n","_________________________________________________________________\n","leaky_re_lu_8 (LeakyReLU)    (None, 2, 5, 30)          0         \n","_________________________________________________________________\n","batch_normalization_8 (Batch (None, 2, 5, 30)          120       \n","_________________________________________________________________\n","conv2d_5 (Conv2D)            (None, 2, 5, 30)          930       \n","_________________________________________________________________\n","leaky_re_lu_9 (LeakyReLU)    (None, 2, 5, 30)          0         \n","_________________________________________________________________\n","batch_normalization_9 (Batch (None, 2, 5, 30)          120       \n","_________________________________________________________________\n","conv2d_6 (Conv2D)            (None, 2, 5, 30)          930       \n","_________________________________________________________________\n","leaky_re_lu_10 (LeakyReLU)   (None, 2, 5, 30)          0         \n","_________________________________________________________________\n","batch_normalization_10 (Batc (None, 2, 5, 30)          120       \n","_________________________________________________________________\n","conv2d_7 (Conv2D)            (None, 2, 5, 30)          930       \n","_________________________________________________________________\n","leaky_re_lu_11 (LeakyReLU)   (None, 2, 5, 30)          0         \n","_________________________________________________________________\n","batch_normalization_11 (Batc (None, 2, 5, 30)          120       \n","_________________________________________________________________\n","conv2d_8 (Conv2D)            (None, 2, 5, 30)          930       \n","_________________________________________________________________\n","leaky_re_lu_12 (LeakyReLU)   (None, 2, 5, 30)          0         \n","_________________________________________________________________\n","batch_normalization_12 (Batc (None, 2, 5, 30)          120       \n","_________________________________________________________________\n","conv2d_9 (Conv2D)            (None, 2, 5, 30)          930       \n","_________________________________________________________________\n","leaky_re_lu_13 (LeakyReLU)   (None, 2, 5, 30)          0         \n","_________________________________________________________________\n","batch_normalization_13 (Batc (None, 2, 5, 30)          120       \n","_________________________________________________________________\n","conv2d_10 (Conv2D)           (None, 2, 5, 30)          930       \n","_________________________________________________________________\n","leaky_re_lu_14 (LeakyReLU)   (None, 2, 5, 30)          0         \n","_________________________________________________________________\n","batch_normalization_14 (Batc (None, 2, 5, 30)          120       \n","_________________________________________________________________\n","conv2d_11 (Conv2D)           (None, 2, 5, 30)          930       \n","_________________________________________________________________\n","leaky_re_lu_15 (LeakyReLU)   (None, 2, 5, 30)          0         \n","_________________________________________________________________\n","batch_normalization_15 (Batc (None, 2, 5, 30)          120       \n","_________________________________________________________________\n","conv2d_12 (Conv2D)           (None, 2, 5, 1)           31        \n","_________________________________________________________________\n","leaky_re_lu_16 (LeakyReLU)   (None, 2, 5, 1)           0         \n","=================================================================\n","Total params: 19,951\n","Trainable params: 19,231\n","Non-trainable params: 720\n","_________________________________________________________________\n"],"name":"stdout"},{"output_type":"stream","text":["/usr/local/lib/python3.7/dist-packages/tensorflow/python/keras/optimizer_v2/optimizer_v2.py:375: UserWarning: Th
…
